HE-MAN/Cryptonets/_Gemm_3_bias.npy (npy, 640 bytes, 1 tensors)

array f4 [128]
-0.015322126 0.03278327 0.02733065 -0.028553145 -0.001698867 -0.022713622 -0.024052672 -0.00730042
0.07427671 0.06666451 0.024592098 0.013559977 0.07260565 -0.039593335 0.050842777 -0.00028203693
0.034273203 -0.006593646 0.09464987 0.035812676 -0.033475935 -0.03350423 0.0106639825 -0.019124743
0.00082044496 0.02188809 0.06430299 -0.0081383735 -0.022754332 0.08430435 -0.000756098 0.033659536
-0.024276143 -0.032449525 0.03471393 -0.04604747 -0.001363314 0.03473945 0.0043424484 0.039243393
-0.04655403 0.016266057 -0.0064359726 0.01426546 -0.01654451 0.013341296 -0.035072953 -0.032112475
0.023017209 0.006563741 -0.0009025378 0.01740009 -0.04035205 0.0348892 0.061357748 0.02507337
0.03383927 -0.04336447 -0.04323708 0.030415693 -0.019478567 -0.06567062 -0.027516937 0.02253496
0.056372114 0.03586046 0.010794753 0.0031161588 -0.016390342 -0.0117147025 0.019129317 0.012342552
0.053966943 -0.039578296 -0.03757393 -0.010903497 -0.029736498 -0.049630944 0.0014292279 -0.017236108
-0.04834616 0.024849424 0.01987807 0.060090303 -0.050015964 0.06760544 0.02209967 -0.012948952
0.038641352 0.0042495653 0.007018008 -0.0012277816 -0.0014091574 -0.03036531 0.00019444387 0.025341064
0.0024606015 0.041296817 0.038389366 0.01970067 -0.048094843 0.019033665 -0.018923791 -0.029520698
0.040238112 0.07523463 0.034084428 0.0127428025 0.05991419 -0.0030531038 -0.018619493 0.080135204
0.012754734 0.043083545 0.074504584 -0.0020854496 0.06780287 -0.05451333 -0.030576276 -0.06435508
0.005229655 0.009435144 -0.053110663 -0.013830389 -0.027910462 0.02158272 -0.00262835 0.021921087
00000000: a809 7bbc c047 063d 87e4 df3c 49e8 e9bc
00000010: 84ac deba eb11 babc 1c0a c5bc 5d38 efbb
00000020: 631e 983d 6787 883d 5e75 c93c aa2a 5e3c
00000030: 45b2 943d 9f2c 22bd 8440 503d 5bde 93b9
00000040: 0f62 0c3d 830f d8bb cbd7 c13d 50b0 123d
00000050: 101e 09bd bb3b 09bd fcb7 2e3c 7eab 9cbc
00000060: 2113 573a a74e b33c 49b1 833d d056 05bc
00000070: 4b67 babc c2a7 ac3d e134 46ba 95de 093d
00000080: c3de c6bc cbe9 04bd 3230 0e3d 469c 3cbd
00000090: 3ab1 b2ba f44a 0e3d 194b 8e3b aebd 203d
000000a0: 70af 3ebd 6540 853c dae4 d2bb adb9 693c
000000b0: 5a88 87bc 7495 5a3c a8a8 0fbd 5f88 03bd
000000c0: 968e bc3c a614 d73b 4998 6cba a28a 8e3c
000000d0: 3148 25bd fae7 0e3d 4352 7b3d ab66 cd3c
000000e0: 0c9b 0a3d f19e 31bd 5d19 31bd 552a f93c
000000f0: 8491 9fbc 517e 86bd 336b e1bc 3d9b b83c
00000100: 72e6 663d 6be2 123d 7adc 303c 7838 4c3b
00000110: 0a45 86bc 06ef 3fbc 16b5 9c3c 6a38 4a3c
00000120: 710c 5d3d da1c 22bd 1fe7 19bd 95a4 32bc
00000130: f599 f3bc d149 4bbd ee54 bb3a bd32 8dbc
00000140: a006 46bd 0591 cb3c 56d7 a23c 4021 763d
00000150: 8add 4cbd b974 8a3d 5e0a b53c d727 54bc
00000160: 6546 1e3d f03f 8b3b 51f7 e53b 84ed a0ba
00000170: 7ab3 b8ba acc0 f8bc a1e3 4b39 1098 cf3c
00000180: 0b42 213b da26 293d 2b3e 1d3d 4d63 a13c
00000190: 19ff 44bd 7dec 9b3c 1106 9bbc 64d5 f1bc
000001a0: b8d0 243d 9d14 9a3d 1d9c 0b3d 30c7 503c
000001b0: 9568 753d 9516 48bb e887 98bc ed1d a43d
000001c0: 3bf9 503c 5f78 303d dc95 983d 0aac 08bb
000001d0: 3bdc 8a3d 5f49 5fbd 197b fabc 99cc 83bd
000001e0: 875d ab3b dd95 1a3c 918a 59bd db98 62bc
000001f0: 7ba4 e4bc 3fce b03c 6540 2cbb da93 b33c
